…
ling2D(2),\n    tf.keras.layers.Flatten(),\n    tf.keras.layers.Dense(100, activation='relu'),\n    tf.keras.layers.Dense(50, activation='relu'),\n    tf.keras.layers.Dense(10, activation='softmax')\n])\n\nmodel_cnn.compile(optimizer='adam', loss='sparse_categorical_crossentropy',\n                  metrics='accuracy')\n\nmodel_cnn.summary()\n\nModel: \"sequential\"\n_________________________________________________________________\n Layer (type)                Output Shape              Param #   \n=================================================================\n conv2d (Conv2D)             (None, 24, 24, 32)        832       \n                                                                 \n max_pooling2d (MaxPooling2D  (None, 12, 12, 32)       0         \n )                                                               \n                                                                 \n conv2d_1 (Conv2D)           (None, 10, 10, 64)        18496     \n                                                                 \n max_pooling2d_1 (MaxPooling  (None, 5, 5, 64)         0         \n 2D)                                                             \n                                                                 \n flatten (Flatten)           (None, 1600)              0         \n                                                                 \n dense (Dense)               (None, 100)               160100    \n                                                                 \n dense_1 (Dense)             (None, 50)                5050      \n                                                                 \n dense_2 (Dense)             (None, 10)                510       \n                                                                 \n=================================================================\nTotal params: 184,988\nTrainable params: 184,988\nNon-trainable params: 0\n_________________________________________________________________\n\n\n\nearly_stop = tf.keras.callbacks.EarlyStopping(patience=5, monitor='val_loss',\n                              
…
